…
I0122 23:17:09.108309 24660 net.cpp:325] The NetState phase (0) differed from the phase (1) specified by a rule in layer data
I0122 23:17:09.108324 24660 net.cpp:325] The NetState phase (0) differed from the phase (1) specified by a rule in layer accuracy
I0122 23:17:09.108417 24660 net.cpp:52] Initializing net from parameters:
state {
phase: TRAIN
}
layer {
name: "data"
type: "Data"
top: "data"
top: "label"
include {
phase: TRAIN
}
transform_param {
mean_file: "/home/kjaget/DIGITS/digits/jobs/20160122-223828-e082/mean.binaryproto"
}
data_param {
source: "/home/kjaget/DIGITS/digits/jobs/20160122-223828-e082/train_db"
batch_size: 256
backend: LMDB
}
}
layer {
name: "scale_d12"
type: "Power"
bottom: "data"
top: "scale_d12"
power_param {
scale: 0.0125
}
}
layer {
name: "conv1_d12"
type: "Convolution"
bottom: "scale_d12"
top: "conv1_d12"
param {
lr_mult: 1
decay_mult: 1
}
param {
lr_mult: 2
decay_mult: 0
}
convolution_param {
num_output: 4
kernel_size: 3
stride: 1
weight_filler {
type: "xavier"
}
bias_filler {
type: "constant"
}
}
}
layer {
name: "pool1_d12"
type: "Pooling"
bottom: "conv1_d12"
top: "pool1_d12"
pooling_param {
pool: MAX
kernel_size: 3
stride: 2
}
}
layer {
name: "relu1_d12"
type: "ReLU"
bottom: "pool1_d12"
top: "pool1_d12"
}
layer {
name: "fc1_d12"
type: "InnerProduct"
bottom: "pool1_d12"
top: "fc1_d12"
param {
lr_mult: 1
decay_mult: 1
}
param {
lr_mult: 2
decay_mult: 0
}
inner_product_param {
num_output: 6
weight_filler {
type: "xavier"
}
bias_filler {
type: "constant"
}
}
}
layer {
name: "relu2_d12"
type: "ReLU"
bottom: "fc1_d12"
top: "fc1_d12"
}
layer {
name: "drop1_d12"
type: "Dropout"
bottom: "fc1_d12"
top: "fc1_d12"
dropout_param {
dropout_ratio: 0.5
}
}
layer {
name: "fc2_d12"
type: "InnerProduct"
bottom: "fc1_d12"
top: "fc2_d12"
param {
lr_mult: 1
decay_mult: 1
}
param {
lr_mult: 2
decay_mult: 0
}
inner_product_param {
num_output: 2
weight_filler {
type: "xavier"
}
bias_filler {
type: "constant"
}
}
}
layer {
name: "loss"
type: "SoftmaxWithLoss"
bottom: "fc2_d12"
bottom: "label"
top: "loss"
}
I0122 23:17:09.108490 24660 layer_factory.hpp:76] Creating layer data
I0122 23:17:09.346823 24660 net.cpp:109] Creating Layer data
I0122 23:17:09.346853 24660 net.cpp:414] data -> data
I0122 23:17:09.346884 24660 net.cpp:414] data -> label
I0122 23:17:09.346899 24660 data_transformer.cpp:25] Loading mean file from: /home/kjaget/DIGITS/digits/jobs/20160122-223828-e082/mean.binaryproto
I0122 23:17:09.562554 24684 db_lmdb.cpp:36] Opened lmdb /home/kjaget/DIGITS/digits/jobs/20160122-223828-e082/train_db
I0122 23:17:09.562759 24660 data_layer.cpp:45] output data size: 256,3,12,12
I0122 23:17:09.563175 24660 net.cpp:153] Setting up data
I0122 23:17:09.563197 24660 net.cpp:160] Top shape: 256 3 12 12 (110592)
I0122 23:17:09.563205 24660 net.cpp:160] Top shape: 256 (256)
I0122 23:17:09.563210 24660 net.cpp:168] Memory required for data: 443392
I0122 23:17:09.563220 24660 layer_factory.hpp:76] Creating layer scale_d12
I0122 23:17:09.563233 24660 net.cpp:109] Creating Layer scale_d12
I0122 23:17:09.563240 24660 net.cpp:457] scale_d12 <- data
I0122 23:17:09.563253 24660 net.cpp:414] scale_d12 -> scale_d12
I0122 23:17:09.563268 24660 net.cpp:153] Setting up scale_d12
I0122 23:17:09.563274 24660 net.cpp:160] Top shape: 256 3 12 12 (110592)
I0122 23:17:09.563278 24660 net.cpp:168] Memory required for data: 885760
I0122 23:17:09.563282 24660 layer_factory.hpp:76] Creating layer conv1_d12
I0122 23:17:09.563295 24660 net.cpp:109] Creating Layer conv1_d12
I0122 23:17:09.563299 24660 net.cpp:457] conv1_d12 <- scale_d12
I0122 23:17:09.563304 24660 net.cpp:414] conv1_d12 -> conv1_d12
I0122 23:17:09.647148 24660 net.cpp:153] Setting up conv1_d12
I0122 23:17:09.647202 24660 net.cpp:160] Top shape: 256 4 10 10 (102400)
I0122 23:17:09.647207 24660 net.cpp:168] Memory required for data: 1295360
I0122 23:17:09.647231 24660 layer_factory.hpp:76] Creating layer pool1_d12
I0122 23:17:09.647246 24660 net.cpp:109] Creating Layer pool1_d12
I0122 23:17:09.647253 24660 net.cpp:457] pool1_d12 <- conv1_d12
I0122 23:17:09.647259 24660 net.cpp:414] pool1_d12 -> pool1_d12
I0122 23:17:09.647287 24660 net.cpp:153] Setting up pool1_d12
I0122 23:17:09.647294 24660 net.cpp:160] Top shape: 256 4 5 5 (25600)
I0122 23:17:09.647299 24660 net.cpp:168] Memory required for data: 1397760
I0122 23:17:09.647301 24660 layer_factory.hpp:76] Creating layer relu1_d12
I0122 23:17:09.647311 24660 net.cpp:109] Creating Layer relu1_d12
I0122 23:17:09.647316 24660 net.cpp:457] relu1_d12 <- pool1_d12
I0122 23:17:09.647321 24660 net.cpp:400] relu1_d12 -> pool1_d12 (in-place)
I0122 23:17:09.647330 24660 net.cpp:153] Setting up relu1_d12
I0122 23:17:09.647336 24660 net.cpp:160] Top shape: 256 4 5 5 (25600)
I0122 23:17:09.647338 24660 net.cpp:168] Memory required for data: 1500160
I0122 23:17:09.647342 24660 layer_factory.hpp:76] Creating layer fc1_d12
I0122 23:17:09.647353 24660 net.cpp:109] Creating Layer fc1_d12
I0122 23:17:09.647357 24660 net.cpp:457] fc1_d12 <- pool1_d12
I0122 23:17:09.647363 24660 net.cpp:414] fc1_d12 -> fc1_d12
I0122 23:17:09.647395 24660 net.cpp:153] Setting up fc1_d12
I0122 23:17:09.647403 24660 net.cpp:160] Top shape: 256 6 (1536)
I0122 23:17:09.647405 24660 net.cpp:168] Memory required for data: 1506304
I0122 23:17:09.647413 24660 layer_factory.hpp:76] Creating layer relu2_d12
I0122 23:17:09.647420 24660 net.cpp:109] Creating Layer relu2_d12
I0122 23:17:09.647424 24660 net.cpp:457] relu2_d12 <- fc1_d12
I0122 23:17:09.647429 24660 net.cpp:400] relu2_d12 -> fc1_d12 (in-place)
I0122 23:17:09.647436 24660 net.cpp:153] Setting up relu2_d12
I0122 23:17:09.647440 24660 net.cpp:160] Top shape: 256 6 (1536)
I0122 23:17:09.647444 24660 net.cpp:168] Memory required for data: 1512448
I0122 23:17:09.647447 24660 layer_factory.hpp:76] Creating layer drop1_d12
I0122 23:17:09.647456 24660 net.cpp:109] Creating Layer drop1_d12
I0122 23:17:09.647459 24660 net.cpp:457] drop1_d12 <- fc1_d12
I0122 23:17:09.647464 24660 net.cpp:400] drop1_d12 -> fc1_d12 (in-place)
I0122 23:17:09.647475 24660 net.cpp:153] Setting up drop1_d12
I0122 23:17:09.647480 24660 net.cpp:160] Top shape: 256 6 (1536)
I0122 23:17:09.647483 24660 net.cpp:168] Memory required for data: 1518592
I0122 23:17:09.647486 24660 layer_factory.hpp:76] Creating layer fc2_d12
I0122 23:17:09.647495 24660 net.cpp:109] Creating Layer fc2_d12
I0122 23:17:09.647500 24660 net.cpp:457] fc2_d12 <- fc1_d12
I0122 23:17:09.647505 24660 net.cpp:414] fc2_d12 -> fc2_d12
I0122 23:17:09.647518 24660 net.cpp:153] Setting up fc2_d12
I0122 23:17:09.647522 24660 net.cpp:160] Top shape: 256 2 (512)
I0122 23:17:09.647524 24660 net.cpp:168] Memory required for data: 1520640
I0122 23:17:09.647529 24660 layer_factory.hpp:76] Creating layer loss
I0122 23:17:09.647536 24660 net.cpp:109] Creating Layer loss
I0122 23:17:09.647538 24660 net.cpp:457] loss <- fc2_d12
I0122 23:17:09.647541 24660 net.cpp:457] loss <- label
I0122 23:17:09.647544 24660 net.cpp:414] loss -> loss
I0122 23:17:09.647553 24660 layer_factory.hpp:76] Creating layer loss
…
I0122 23:17:09.647850 24660 solver.cpp:187] Creating test net (#0) specified by net file: train_val.prototxt
I0122 23:17:09.647869 24660 net.cpp:325] The NetState phase (1) differed from the phase (0) specified by a rule in layer data
I0122 23:17:09.647933 24660 net.cpp:52] Initializing net from parameters:
state {
phase: TEST
}
layer {
name: "data"
type: "Data"
top: "data"
top: "label"
include {
phase: TEST
}
transform_param {
mean_file: "/home/kjaget/DIGITS/digits/jobs/20160122-223828-e082/mean.binaryproto"
}
data_param {
source: "/home/kjaget/DIGITS/digits/jobs/20160122-223828-e082/val_db"
batch_size: 100
backend: LMDB
}
}
layer {
name: "scale_d12"
type: "Power"
bottom: "data"
top: "scale_d12"
power_param {
scale: 0.0125
}
}
layer {
name: "conv1_d12"
type: "Convolution"
bottom: "scale_d12"
top: "conv1_d12"
param {
lr_mult: 1
decay_mult: 1
}
param {
lr_mult: 2
decay_mult: 0
}
convolution_param {
num_output: 4
kernel_size: 3
stride: 1
weight_filler {
type: "xavier"
}
bias_filler {
type: "constant"
}
}
}
layer {
name: "pool1_d12"
type: "Pooling"
bottom: "conv1_d12"
top: "pool1_d12"
pooling_param {
pool: MAX
kernel_size: 3
stride: 2
}
}
layer {
name: "relu1_d12"
type: "ReLU"
bottom: "pool1_d12"
top: "pool1_d12"
}
layer {
name: "fc1_d12"
type: "InnerProduct"
bottom: "pool1_d12"
top: "fc1_d12"
param {
lr_mult: 1
decay_mult: 1
}
param {
lr_mult: 2
decay_mult: 0
}
inner_product_param {
num_output: 6
weight_filler {
type: "xavier"
}
bias_filler {
type: "constant"
}
}
}
layer {
name: "relu2_d12"
type: "ReLU"
bottom: "fc1_d12"
top: "fc1_d12"
}
layer {
name: "drop1_d12"
type: "Dropout"
bottom: "fc1_d12"
top: "fc1_d12"
dropout_param {
dropout_ratio: 0.5
}
}
layer {
name: "fc2_d12"
type: "InnerProduct"
bottom: "fc1_d12"
top: "fc2_d12"
param {
lr_mult: 1
decay_mult: 1
}
param {
lr_mult: 2
decay_mult: 0
}
inner_product_param {
num_output: 2
weight_filler {
type: "xavier"
}
bias_filler {
type: "constant"
}
}
}
layer {
name: "loss"
type: "SoftmaxWithLoss"
bottom: "fc2_d12"
bottom: "label"
top: "loss"
}
layer {
name: "accuracy"
type: "Accuracy"
bottom: "fc2_d12"
bottom: "label"
top: "accuracy"
include {
phase: TEST
}
}
I0122 23:17:09.647981 24660 layer_factory.hpp:76] Creating layer data
I0122 23:17:09.648066 24660 net.cpp:109] Creating Layer data
I0122 23:17:09.648072 24660 net.cpp:414] data -> data
I0122 23:17:09.648077 24660 net.cpp:414] data -> label
I0122 23:17:09.648082 24660 data_transformer.cpp:25] Loading mean file from: /home/kjaget/DIGITS/digits/jobs/20160122-223828-e082/mean.binaryproto
I0122 23:17:10.068910 24686 db_lmdb.cpp:36] Opened lmdb /home/kjaget/DIGITS/digits/jobs/20160122-223828-e082/val_db
I0122 23:17:10.068985 24660 data_layer.cpp:45] output data size: 100,3,12,12
I0122 23:17:10.071241 24660 net.cpp:153] Setting up data
I0122 23:17:10.071259 24660 net.cpp:160] Top shape: 100 3 12 12 (43200)
I0122 23:17:10.071264 24660 net.cpp:160] Top shape: 100 (100)
I0122 23:17:10.071267 24660 net.cpp:168] Memory required for data: 173200
I0122 23:17:10.071274 24660 layer_factory.hpp:76] Creating layer label_data_1_split
I0122 23:17:10.071287 24660 net.cpp:109] Creating Layer label_data_1_split
I0122 23:17:10.071292 24660 net.cpp:457] label_data_1_split <- label
I0122 23:17:10.071298 24660 net.cpp:414] label_data_1_split -> label_data_1_split_0
I0122 23:17:10.071331 24660 net.cpp:414] label_data_1_split -> label_data_1_split_1
I0122 23:17:10.071343 24660 net.cpp:153] Setting up label_data_1_split
I0122 23:17:10.071349 24660 net.cpp:160] Top shape: 100 (100)
I0122 23:17:10.071353 24660 net.cpp:160] Top shape: 100 (100)
I0122 23:17:10.071357 24660 net.cpp:168] Memory required for data: 174000
I0122 23:17:10.071360 24660 layer_factory.hpp:76] Creating layer scale_d12
I0122 23:17:10.071372 24660 net.cpp:109] Creating Layer scale_d12
I0122 23:17:10.071375 24660 net.cpp:457] scale_d12 <- data
I0122 23:17:10.071389 24660 net.cpp:414] scale_d12 -> scale_d12
I0122 23:17:10.071398 24660 net.cpp:153] Setting up scale_d12
I0122 23:17:10.071403 24660 net.cpp:160] Top shape: 100 3 12 12 (43200)
I0122 23:17:10.071406 24660 net.cpp:168] Memory required for data: 346800
I0122 23:17:10.071410 24660 layer_factory.hpp:76] Creating layer conv1_d12
I0122 23:17:10.071421 24660 net.cpp:109] Creating Layer conv1_d12
I0122 23:17:10.071425 24660 net.cpp:457] conv1_d12 <- scale_d12
I0122 23:17:10.071430 24660 net.cpp:414] conv1_d12 -> conv1_d12
I0122 23:17:10.087919 24660 net.cpp:153] Setting up conv1_d12
I0122 23:17:10.087942 24660 net.cpp:160] Top shape: 100 4 10 10 (40000)
I0122 23:17:10.087947 24660 net.cpp:168] Memory required for data: 506800
I0122 23:17:10.087965 24660 layer_factory.hpp:76] Creating layer pool1_d12
I0122 23:17:10.087980 24660 net.cpp:109] Creating Layer pool1_d12
I0122 23:17:10.087985 24660 net.cpp:457] pool1_d12 <- conv1_d12
I0122 23:17:10.087995 24660 net.cpp:414] pool1_d12 -> pool1_d12
I0122 23:17:10.088011 24660 net.cpp:153] Setting up pool1_d12
I0122 23:17:10.088016 24660 net.cpp:160] Top shape: 100 4 5 5 (10000)
I0122 23:17:10.088018 24660 net.cpp:168] Memory required for data: 546800
I0122 23:17:10.088022 24660 layer_factory.hpp:76] Creating layer relu1_d12
I0122 23:17:10.088028 24660 net.cpp:109] Creating Layer relu1_d12
I0122 23:17:10.088032 24660 net.cpp:457] relu1_d12 <- pool1_d12
I0122 23:17:10.088042 24660 net.cpp:400] relu1_d12 -> pool1_d12 (in-place)
I0122 23:17:10.088048 24660 net.cpp:153] Setting up relu1_d12
I0122 23:17:10.088053 24660 net.cpp:160] Top shape: 100 4 5 5 (10000)
I0122 23:17:10.088057 24660 net.cpp:168] Memory required for data: 586800
I0122 23:17:10.088060 24660 layer_factory.hpp:76] Creating layer fc1_d12
I0122 23:17:10.088068 24660 net.cpp:109] Creating Layer fc1_d12
I0122 23:17:10.088071 24660 net.cpp:457] fc1_d12 <- pool1_d12
I0122 23:17:10.088079 24660 net.cpp:414] fc1_d12 -> fc1_d12
I0122 23:17:10.088105 24660 net.cpp:153] Setting up fc1_d12
I0122 23:17:10.088110 24660 net.cpp:160] Top shape: 100 6 (600)
I0122 23:17:10.088114 24660 net.cpp:168] Memory required for data: 589200
I0122 23:17:10.088121 24660 layer_factory.hpp:76] Creating layer relu2_d12
I0122 23:17:10.088126 24660 net.cpp:109] Creating Layer relu2_d12
I0122 23:17:10.088130 24660 net.cpp:457] relu2_d12 <- fc1_d12
I0122 23:17:10.088140 24660 net.cpp:400] relu2_d12 -> fc1_d12 (in-place)
I0122 23:17:10.088147 24660 net.cpp:153] Setting up relu2_d12
I0122 23:17:10.088151 24660 net.cpp:160] Top shape: 100 6 (600)
I0122 23:17:10.088155 24660 net.cpp:168] Memory required for data: 591600
I0122 23:17:10.088157 24660 layer_factory.hpp:76] Creating layer drop1_d12
I0122 23:17:10.088165 24660 net.cpp:109] Creating Layer drop1_d12
I0122 23:17:10.088168 24660 net.cpp:457] drop1_d12 <- fc1_d12
I0122 23:17:10.088173 24660 net.cpp:400] drop1_d12 -> fc1_d12 (in-place)
I0122 23:17:10.088179 24660 net.cpp:153] Setting up drop1_d12
I0122 23:17:10.088184 24660 net.cpp:160] Top shape: 100 6 (600)
I0122 23:17:10.088187 24660 net.cpp:168] Memory required for data: 594000
I0122 23:17:10.088191 24660 layer_factory.hpp:76] Creating layer fc2_d12
I0122 23:17:10.088199 24660 net.cpp:109] Creating Layer fc2_d12
I0122 23:17:10.088202 24660 net.cpp:457] fc2_d12 <- fc1_d12
I0122 23:17:10.088208 24660 net.cpp:414] fc2_d12 -> fc2_d12
I0122 23:17:10.088223 24660 net.cpp:153] Setting up fc2_d12
I0122 23:17:10.088228 24660 net.cpp:160] Top shape: 100 2 (200)
I0122 23:17:10.088232 24660 net.cpp:168] Memory required for data: 594800
I0122 23:17:10.088258 24660 layer_factory.hpp:76] Creating layer fc2_d12_fc2_d12_0_split
I0122 23:17:10.088265 24660 net.cpp:109] Creating Layer fc2_d12_fc2_d12_0_split
I0122 23:17:10.088270 24660 net.cpp:457] fc2_d12_fc2_d12_0_split <- fc2_d12
I0122 23:17:10.088275 24660 net.cpp:414] fc2_d12_fc2_d12_0_split -> fc2_d12_fc2_d12_0_split_0
I0122 23:17:10.088281 24660 net.cpp:414] fc2_d12_fc2_d12_0_split -> fc2_d12_fc2_d12_0_split_1
I0122 23:17:10.088289 24660 net.cpp:153] Setting up fc2_d12_fc2_d12_0_split
I0122 23:17:10.088294 24660 net.cpp:160] Top shape: 100 2 (200)
I0122 23:17:10.088297 24660 net.cpp:160] Top shape: 100 2 (200)
I0122 23:17:10.088300 24660 net.cpp:168] Memory required for data: 596400
I0122 23:17:10.088304 24660 layer_factory.hpp:76] Creating layer loss
I0122 23:17:10.088310 24660 net.cpp:109] Creating Layer loss
I0122 23:17:10.088312 24660 net.cpp:457] loss <- fc2_d12_fc2_d12_0_split_0
I0122 23:17:10.088316 24660 net.cpp:457] loss <- label_data_1_split_0
I0122 23:17:10.088321 24660 net.cpp:414] loss -> loss
…
