…
I0727 22:31:34.730954 10581 net.cpp:316] The NetState phase (0) differed from the phase (1) specified by a rule in layer val-data
I0727 22:31:34.730965 10581 net.cpp:316] The NetState phase (0) differed from the phase (1) specified by a rule in layer accuracy
I0727 22:31:34.731210 10581 net.cpp:52] Initializing net from parameters:
state {
phase: TRAIN
}
layer {
name: "train-data"
type: "Data"
top: "data"
top: "label"
include {
phase: TRAIN
}
transform_param {
scale: 0.00390625
mirror: true
mean_value: 127
}
data_param {
source: "/home/kjaget/DIGITS/digits/jobs/20160727-213559-d1a2/train_db"
batch_size: 128
backend: LMDB
}
}
layer {
name: "conv1_d24"
type: "Convolution"
bottom: "data"
top: "conv1_d24"
param {
lr_mult: 1
decay_mult: 1
}
param {
lr_mult: 2
decay_mult: 0
}
convolution_param {
num_output: 4
kernel_size: 3
stride: 1
weight_filler {
type: "xavier"
}
bias_filler {
type: "constant"
}
}
}
layer {
name: "pool1_d24"
type: "Pooling"
bottom: "conv1_d24"
top: "pool1_d24"
pooling_param {
pool: MAX
kernel_size: 3
stride: 2
}
}
layer {
name: "relu1_d24"
type: "ReLU"
bottom: "pool1_d24"
top: "pool1_d24"
}
layer {
name: "conv1a_d24"
type: "Convolution"
bottom: "pool1_d24"
top: "conv1a_d24"
param {
lr_mult: 1
decay_mult: 1
}
param {
lr_mult: 2
decay_mult: 0
}
convolution_param {
num_output: 4
kernel_size: 3
stride: 1
weight_filler {
type: "xavier"
}
bias_filler {
type: "constant"
}
}
}
layer {
name: "pool1a_d24"
type: "Pooling"
bottom: "conv1a_d24"
top: "pool1a_d24"
pooling_param {
pool: MAX
kernel_size: 3
stride: 2
}
}
layer {
name: "relu1a_d24"
type: "ReLU"
bottom: "pool1a_d24"
top: "pool1a_d24"
}
layer {
name: "fc1_d24"
type: "InnerProduct"
bottom: "pool1a_d24"
top: "fc1_d24"
param {
lr_mult: 1
decay_mult: 1
}
param {
lr_mult: 2
decay_mult: 0
}
inner_product_param {
num_output: 6
weight_filler {
type: "xavier"
}
bias_filler {
type: "constant"
}
}
}
layer {
name: "relu2_d24"
type: "ReLU"
bottom: "fc1_d24"
top: "fc1_d24"
}
layer {
name: "drop1_d24"
type: "Dropout"
bottom: "fc1_d24"
top: "fc1_d24"
dropout_param {
dropout_ratio: 0.5
}
}
layer {
name: "fc2_d24"
type: "InnerProduct"
bottom: "fc1_d24"
top: "fc2_d24"
param {
lr_mult: 1
decay_mult: 1
}
param {
lr_mult: 2
decay_mult: 0
}
inner_product_param {
num_output: 2
weight_filler {
type: "xavier"
}
bias_filler {
type: "constant"
}
}
}
layer {
name: "loss"
type: "SoftmaxWithLoss"
bottom: "fc2_d24"
bottom: "label"
top: "loss"
}
I0727 22:31:34.731367 10581 layer_factory.hpp:77] Creating layer train-data
I0727 22:31:34.731945 10581 net.cpp:94] Creating Layer train-data
I0727 22:31:34.731956 10581 net.cpp:402] train-data -> data
I0727 22:31:34.731974 10581 net.cpp:402] train-data -> label
I0727 22:31:34.733243 10593 db_lmdb.cpp:35] Opened lmdb /home/kjaget/DIGITS/digits/jobs/20160727-213559-d1a2/train_db
I0727 22:31:34.734967 10581 data_layer.cpp:41] output data size: 128,3,24,24
I0727 22:31:34.736753 10581 net.cpp:144] Setting up train-data
I0727 22:31:34.736765 10581 net.cpp:151] Top shape: 128 3 24 24 (221184)
I0727 22:31:34.736769 10581 net.cpp:151] Top shape: 128 (128)
I0727 22:31:34.736771 10581 net.cpp:159] Memory required for data: 885248
I0727 22:31:34.736778 10581 layer_factory.hpp:77] Creating layer conv1_d24
I0727 22:31:34.736790 10581 net.cpp:94] Creating Layer conv1_d24
I0727 22:31:34.736794 10581 net.cpp:428] conv1_d24 <- data
I0727 22:31:34.736804 10581 net.cpp:402] conv1_d24 -> conv1_d24
I0727 22:31:34.737557 10581 net.cpp:144] Setting up conv1_d24
I0727 22:31:34.737567 10581 net.cpp:151] Top shape: 128 4 22 22 (247808)
I0727 22:31:34.737571 10581 net.cpp:159] Memory required for data: 1876480
I0727 22:31:34.737587 10581 layer_factory.hpp:77] Creating layer pool1_d24
I0727 22:31:34.737597 10581 net.cpp:94] Creating Layer pool1_d24
I0727 22:31:34.737601 10581 net.cpp:428] pool1_d24 <- conv1_d24
I0727 22:31:34.737607 10581 net.cpp:402] pool1_d24 -> pool1_d24
I0727 22:31:34.737678 10581 net.cpp:144] Setting up pool1_d24
I0727 22:31:34.737685 10581 net.cpp:151] Top shape: 128 4 11 11 (61952)
I0727 22:31:34.737689 10581 net.cpp:159] Memory required for data: 2124288
I0727 22:31:34.737692 10581 layer_factory.hpp:77] Creating layer relu1_d24
I0727 22:31:34.737699 10581 net.cpp:94] Creating Layer relu1_d24
I0727 22:31:34.737701 10581 net.cpp:428] relu1_d24 <- pool1_d24
I0727 22:31:34.737704 10581 net.cpp:389] relu1_d24 -> pool1_d24 (in-place)
I0727 22:31:34.737715 10581 net.cpp:144] Setting up relu1_d24
I0727 22:31:34.737717 10581 net.cpp:151] Top shape: 128 4 11 11 (61952)
I0727 22:31:34.737720 10581 net.cpp:159] Memory required for data: 2372096
I0727 22:31:34.737721 10581 layer_factory.hpp:77] Creating layer conv1a_d24
I0727 22:31:34.737728 10581 net.cpp:94] Creating Layer conv1a_d24
I0727 22:31:34.737730 10581 net.cpp:428] conv1a_d24 <- pool1_d24
I0727 22:31:34.737733 10581 net.cpp:402] conv1a_d24 -> conv1a_d24
I0727 22:31:34.737939 10581 net.cpp:144] Setting up conv1a_d24
I0727 22:31:34.737946 10581 net.cpp:151] Top shape: 128 4 9 9 (41472)
I0727 22:31:34.737947 10581 net.cpp:159] Memory required for data: 2537984
I0727 22:31:34.737952 10581 layer_factory.hpp:77] Creating layer pool1a_d24
I0727 22:31:34.737957 10581 net.cpp:94] Creating Layer pool1a_d24
I0727 22:31:34.737960 10581 net.cpp:428] pool1a_d24 <- conv1a_d24
I0727 22:31:34.737965 10581 net.cpp:402] pool1a_d24 -> pool1a_d24
I0727 22:31:34.738061 10581 net.cpp:144] Setting up pool1a_d24
I0727 22:31:34.738068 10581 net.cpp:151] Top shape: 128 4 4 4 (8192)
I0727 22:31:34.738071 10581 net.cpp:159] Memory required for data: 2570752
I0727 22:31:34.738075 10581 layer_factory.hpp:77] Creating layer relu1a_d24
I0727 22:31:34.738080 10581 net.cpp:94] Creating Layer relu1a_d24
I0727 22:31:34.738081 10581 net.cpp:428] relu1a_d24 <- pool1a_d24
I0727 22:31:34.738085 10581 net.cpp:389] relu1a_d24 -> pool1a_d24 (in-place)
I0727 22:31:34.738088 10581 net.cpp:144] Setting up relu1a_d24
I0727 22:31:34.738091 10581 net.cpp:151] Top shape: 128 4 4 4 (8192)
I0727 22:31:34.738093 10581 net.cpp:159] Memory required for data: 2603520
I0727 22:31:34.738095 10581 layer_factory.hpp:77] Creating layer fc1_d24
I0727 22:31:34.738101 10581 net.cpp:94] Creating Layer fc1_d24
I0727 22:31:34.738102 10581 net.cpp:428] fc1_d24 <- pool1a_d24
I0727 22:31:34.738106 10581 net.cpp:402] fc1_d24 -> fc1_d24
I0727 22:31:34.738169 10581 net.cpp:144] Setting up fc1_d24
I0727 22:31:34.738173 10581 net.cpp:151] Top shape: 128 6 (768)
I0727 22:31:34.738175 10581 net.cpp:159] Memory required for data: 2606592
I0727 22:31:34.738180 10581 layer_factory.hpp:77] Creating layer relu2_d24
I0727 22:31:34.738184 10581 net.cpp:94] Creating Layer relu2_d24
I0727 22:31:34.738186 10581 net.cpp:428] relu2_d24 <- fc1_d24
I0727 22:31:34.738188 10581 net.cpp:389] relu2_d24 -> fc1_d24 (in-place)
I0727 22:31:34.738193 10581 net.cpp:144] Setting up relu2_d24
I0727 22:31:34.738194 10581 net.cpp:151] Top shape: 128 6 (768)
I0727 22:31:34.738209 10581 net.cpp:159] Memory required for data: 2609664
I0727 22:31:34.738210 10581 layer_factory.hpp:77] Creating layer drop1_d24
I0727 22:31:34.738217 10581 net.cpp:94] Creating Layer drop1_d24
I0727 22:31:34.738220 10581 net.cpp:428] drop1_d24 <- fc1_d24
I0727 22:31:34.738225 10581 net.cpp:389] drop1_d24 -> fc1_d24 (in-place)
I0727 22:31:34.738245 10581 net.cpp:144] Setting up drop1_d24
I0727 22:31:34.738250 10581 net.cpp:151] Top shape: 128 6 (768)
I0727 22:31:34.738255 10581 net.cpp:159] Memory required for data: 2612736
I0727 22:31:34.738257 10581 layer_factory.hpp:77] Creating layer fc2_d24
I0727 22:31:34.738263 10581 net.cpp:94] Creating Layer fc2_d24
I0727 22:31:34.738266 10581 net.cpp:428] fc2_d24 <- fc1_d24
I0727 22:31:34.738271 10581 net.cpp:402] fc2_d24 -> fc2_d24
I0727 22:31:34.738345 10581 net.cpp:144] Setting up fc2_d24
I0727 22:31:34.738349 10581 net.cpp:151] Top shape: 128 2 (256)
I0727 22:31:34.738351 10581 net.cpp:159] Memory required for data: 2613760
I0727 22:31:34.738354 10581 layer_factory.hpp:77] Creating layer loss
I0727 22:31:34.738360 10581 net.cpp:94] Creating Layer loss
I0727 22:31:34.738363 10581 net.cpp:428] loss <- fc2_d24
I0727 22:31:34.738364 10581 net.cpp:428] loss <- label
I0727 22:31:34.738368 10581 net.cpp:402] loss -> loss
I0727 22:31:34.738376 10581 layer_factory.hpp:77] Creating layer loss
…
I0727 22:31:34.738757 10581 solver.cpp:181] Creating test net (#0) specified by net file: train_val.prototxt
I0727 22:31:34.738790 10581 net.cpp:316] The NetState phase (1) differed from the phase (0) specified by a rule in layer train-data
I0727 22:31:34.738873 10581 net.cpp:52] Initializing net from parameters:
state {
phase: TEST
}
layer {
name: "val-data"
type: "Data"
top: "data"
top: "label"
include {
phase: TEST
}
transform_param {
scale: 0.00390625
mirror: true
mean_value: 127
}
data_param {
source: "/home/kjaget/DIGITS/digits/jobs/20160727-213559-d1a2/val_db"
batch_size: 128
backend: LMDB
}
}
layer {
name: "conv1_d24"
type: "Convolution"
bottom: "data"
top: "conv1_d24"
param {
lr_mult: 1
decay_mult: 1
}
param {
lr_mult: 2
decay_mult: 0
}
convolution_param {
num_output: 4
kernel_size: 3
stride: 1
weight_filler {
type: "xavier"
}
bias_filler {
type: "constant"
}
}
}
layer {
name: "pool1_d24"
type: "Pooling"
bottom: "conv1_d24"
top: "pool1_d24"
pooling_param {
pool: MAX
kernel_size: 3
stride: 2
}
}
layer {
name: "relu1_d24"
type: "ReLU"
bottom: "pool1_d24"
top: "pool1_d24"
}
layer {
name: "conv1a_d24"
type: "Convolution"
bottom: "pool1_d24"
top: "conv1a_d24"
param {
lr_mult: 1
decay_mult: 1
}
param {
lr_mult: 2
decay_mult: 0
}
convolution_param {
num_output: 4
kernel_size: 3
stride: 1
weight_filler {
type: "xavier"
}
bias_filler {
type: "constant"
}
}
}
layer {
name: "pool1a_d24"
type: "Pooling"
bottom: "conv1a_d24"
top: "pool1a_d24"
pooling_param {
pool: MAX
kernel_size: 3
stride: 2
}
}
layer {
name: "relu1a_d24"
type: "ReLU"
bottom: "pool1a_d24"
top: "pool1a_d24"
}
layer {
name: "fc1_d24"
type: "InnerProduct"
bottom: "pool1a_d24"
top: "fc1_d24"
param {
lr_mult: 1
decay_mult: 1
}
param {
lr_mult: 2
decay_mult: 0
}
inner_product_param {
num_output: 6
weight_filler {
type: "xavier"
}
bias_filler {
type: "constant"
}
}
}
layer {
name: "relu2_d24"
type: "ReLU"
bottom: "fc1_d24"
top: "fc1_d24"
}
layer {
name: "drop1_d24"
type: "Dropout"
bottom: "fc1_d24"
top: "fc1_d24"
dropout_param {
dropout_ratio: 0.5
}
}
layer {
name: "fc2_d24"
type: "InnerProduct"
bottom: "fc1_d24"
top: "fc2_d24"
param {
lr_mult: 1
decay_mult: 1
}
param {
lr_mult: 2
decay_mult: 0
}
inner_product_param {
num_output: 2
weight_filler {
type: "xavier"
}
bias_filler {
type: "constant"
}
}
}
layer {
name: "accuracy"
type: "Accuracy"
bottom: "fc2_d24"
bottom: "label"
top: "accuracy"
include {
phase: TEST
}
}
layer {
name: "loss"
type: "SoftmaxWithLoss"
bottom: "fc2_d24"
bottom: "label"
top: "loss"
}
I0727 22:31:34.738931 10581 layer_factory.hpp:77] Creating layer val-data
I0727 22:31:34.739008 10581 net.cpp:94] Creating Layer val-data
I0727 22:31:34.739023 10581 net.cpp:402] val-data -> data
I0727 22:31:34.739029 10581 net.cpp:402] val-data -> label
I0727 22:31:34.740455 10595 db_lmdb.cpp:35] Opened lmdb /home/kjaget/DIGITS/digits/jobs/20160727-213559-d1a2/val_db
I0727 22:31:34.741755 10581 data_layer.cpp:41] output data size: 128,3,24,24
I0727 22:31:34.743793 10581 net.cpp:144] Setting up val-data
I0727 22:31:34.743800 10581 net.cpp:151] Top shape: 128 3 24 24 (221184)
I0727 22:31:34.743803 10581 net.cpp:151] Top shape: 128 (128)
I0727 22:31:34.743805 10581 net.cpp:159] Memory required for data: 885248
I0727 22:31:34.743808 10581 layer_factory.hpp:77] Creating layer label_val-data_1_split
I0727 22:31:34.744060 10581 net.cpp:94] Creating Layer label_val-data_1_split
I0727 22:31:34.744067 10581 net.cpp:428] label_val-data_1_split <- label
I0727 22:31:34.744071 10581 net.cpp:402] label_val-data_1_split -> label_val-data_1_split_0
I0727 22:31:34.744076 10581 net.cpp:402] label_val-data_1_split -> label_val-data_1_split_1
I0727 22:31:34.744107 10581 net.cpp:144] Setting up label_val-data_1_split
I0727 22:31:34.744112 10581 net.cpp:151] Top shape: 128 (128)
I0727 22:31:34.744114 10581 net.cpp:151] Top shape: 128 (128)
I0727 22:31:34.744117 10581 net.cpp:159] Memory required for data: 886272
I0727 22:31:34.744119 10581 layer_factory.hpp:77] Creating layer conv1_d24
I0727 22:31:34.744127 10581 net.cpp:94] Creating Layer conv1_d24
I0727 22:31:34.744128 10581 net.cpp:428] conv1_d24 <- data
I0727 22:31:34.744132 10581 net.cpp:402] conv1_d24 -> conv1_d24
I0727 22:31:34.744303 10581 net.cpp:144] Setting up conv1_d24
I0727 22:31:34.744309 10581 net.cpp:151] Top shape: 128 4 22 22 (247808)
I0727 22:31:34.744313 10581 net.cpp:159] Memory required for data: 1877504
I0727 22:31:34.744318 10581 layer_factory.hpp:77] Creating layer pool1_d24
I0727 22:31:34.744323 10581 net.cpp:94] Creating Layer pool1_d24
I0727 22:31:34.744325 10581 net.cpp:428] pool1_d24 <- conv1_d24
I0727 22:31:34.744328 10581 net.cpp:402] pool1_d24 -> pool1_d24
I0727 22:31:34.744350 10581 net.cpp:144] Setting up pool1_d24
I0727 22:31:34.744354 10581 net.cpp:151] Top shape: 128 4 11 11 (61952)
I0727 22:31:34.744355 10581 net.cpp:159] Memory required for data: 2125312
I0727 22:31:34.744357 10581 layer_factory.hpp:77] Creating layer relu1_d24
I0727 22:31:34.744361 10581 net.cpp:94] Creating Layer relu1_d24
I0727 22:31:34.744371 10581 net.cpp:428] relu1_d24 <- pool1_d24
I0727 22:31:34.744374 10581 net.cpp:389] relu1_d24 -> pool1_d24 (in-place)
I0727 22:31:34.744379 10581 net.cpp:144] Setting up relu1_d24
I0727 22:31:34.744381 10581 net.cpp:151] Top shape: 128 4 11 11 (61952)
I0727 22:31:34.744384 10581 net.cpp:159] Memory required for data: 2373120
I0727 22:31:34.744385 10581 layer_factory.hpp:77] Creating layer conv1a_d24
I0727 22:31:34.744390 10581 net.cpp:94] Creating Layer conv1a_d24
I0727 22:31:34.744392 10581 net.cpp:428] conv1a_d24 <- pool1_d24
I0727 22:31:34.744395 10581 net.cpp:402] conv1a_d24 -> conv1a_d24
I0727 22:31:34.744786 10581 net.cpp:144] Setting up conv1a_d24
I0727 22:31:34.744793 10581 net.cpp:151] Top shape: 128 4 9 9 (41472)
I0727 22:31:34.744796 10581 net.cpp:159] Memory required for data: 2539008
I0727 22:31:34.744801 10581 layer_factory.hpp:77] Creating layer pool1a_d24
I0727 22:31:34.744806 10581 net.cpp:94] Creating Layer pool1a_d24
I0727 22:31:34.744807 10581 net.cpp:428] pool1a_d24 <- conv1a_d24
I0727 22:31:34.744810 10581 net.cpp:402] pool1a_d24 -> pool1a_d24
I0727 22:31:34.744846 10581 net.cpp:144] Setting up pool1a_d24
I0727 22:31:34.744853 10581 net.cpp:151] Top shape: 128 4 4 4 (8192)
I0727 22:31:34.744856 10581 net.cpp:159] Memory required for data: 2571776
I0727 22:31:34.744860 10581 layer_factory.hpp:77] Creating layer relu1a_d24
I0727 22:31:34.744865 10581 net.cpp:94] Creating Layer relu1a_d24
I0727 22:31:34.744869 10581 net.cpp:428] relu1a_d24 <- pool1a_d24
I0727 22:31:34.744874 10581 net.cpp:389] relu1a_d24 -> pool1a_d24 (in-place)
I0727 22:31:34.744881 10581 net.cpp:144] Setting up relu1a_d24
I0727 22:31:34.744886 10581 net.cpp:151] Top shape: 128 4 4 4 (8192)
I0727 22:31:34.744890 10581 net.cpp:159] Memory required for data: 2604544
I0727 22:31:34.744894 10581 layer_factory.hpp:77] Creating layer fc1_d24
I0727 22:31:34.744900 10581 net.cpp:94] Creating Layer fc1_d24
I0727 22:31:34.744904 10581 net.cpp:428] fc1_d24 <- pool1a_d24
I0727 22:31:34.744910 10581 net.cpp:402] fc1_d24 -> fc1_d24
I0727 22:31:34.745064 10581 net.cpp:144] Setting up fc1_d24
I0727 22:31:34.745069 10581 net.cpp:151] Top shape: 128 6 (768)
I0727 22:31:34.745071 10581 net.cpp:159] Memory required for data: 2607616
I0727 22:31:34.745076 10581 layer_factory.hpp:77] Creating layer relu2_d24
I0727 22:31:34.745080 10581 net.cpp:94] Creating Layer relu2_d24
I0727 22:31:34.745082 10581 net.cpp:428] relu2_d24 <- fc1_d24
I0727 22:31:34.745085 10581 net.cpp:389] relu2_d24 -> fc1_d24 (in-place)
I0727 22:31:34.745090 10581 net.cpp:144] Setting up relu2_d24
I0727 22:31:34.745092 10581 net.cpp:151] Top shape: 128 6 (768)
I0727 22:31:34.745095 10581 net.cpp:159] Memory required for data: 2610688
I0727 22:31:34.745096 10581 layer_factory.hpp:77] Creating layer drop1_d24
I0727 22:31:34.745100 10581 net.cpp:94] Creating Layer drop1_d24
I0727 22:31:34.745102 10581 net.cpp:428] drop1_d24 <- fc1_d24
I0727 22:31:34.745105 10581 net.cpp:389] drop1_d24 -> fc1_d24 (in-place)
I0727 22:31:34.745115 10581 net.cpp:144] Setting up drop1_d24
I0727 22:31:34.745118 10581 net.cpp:151] Top shape: 128 6 (768)
I0727 22:31:34.745121 10581 net.cpp:159] Memory required for data: 2613760
I0727 22:31:34.745122 10581 layer_factory.hpp:77] Creating layer fc2_d24
I0727 22:31:34.745126 10581 net.cpp:94] Creating Layer fc2_d24
I0727 22:31:34.745127 10581 net.cpp:428] fc2_d24 <- fc1_d24
I0727 22:31:34.745131 10581 net.cpp:402] fc2_d24 -> fc2_d24
I0727 22:31:34.745188 10581 net.cpp:144] Setting up fc2_d24
I0727 22:31:34.745192 10581 net.cpp:151] Top shape: 128 2 (256)
I0727 22:31:34.745193 10581 net.cpp:159] Memory required for data: 2614784
I0727 22:31:34.745198 10581 layer_factory.hpp:77] Creating layer fc2_d24_fc2_d24_0_split
I0727 22:31:34.745200 10581 net.cpp:94] Creating Layer fc2_d24_fc2_d24_0_split
I0727 22:31:34.745203 10581 net.cpp:428] fc2_d24_fc2_d24_0_split <- fc2_d24
I0727 22:31:34.745205 10581 net.cpp:402] fc2_d24_fc2_d24_0_split -> fc2_d24_fc2_d24_0_split_0
I0727 22:31:34.745208 10581 net.cpp:402] fc2_d24_fc2_d24_0_split -> fc2_d24_fc2_d24_0_split_1
I0727 22:31:34.745234 10581 net.cpp:144] Setting up fc2_d24_fc2_d24_0_split
I0727 22:31:34.745237 10581 net.cpp:151] Top shape: 128 2 (256)
I0727 22:31:34.745241 10581 net.cpp:151] Top shape: 128 2 (256)
I0727 22:31:34.745245 10581 net.cpp:159] Memory required for data: 2616832
I0727 22:31:34.745249 10581 layer_factory.hpp:77] Creating layer accuracy
I0727 22:31:34.745255 10581 net.cpp:94] Creating Layer accuracy
I0727 22:31:34.745260 10581 net.cpp:428] accuracy <- fc2_d24_fc2_d24_0_split_0
I0727 22:31:34.745265 10581 net.cpp:428] accuracy <- label_val-data_1_split_0
I0727 22:31:34.745270 10581 net.cpp:402] accuracy -> accuracy
…
