layer {
  name: "mnist"
  type: "Data"
  top: "data"
  top: "label"
  include {
    phase: TRAIN
  }
  transform_param {
    mean_file: "/home/kjaget/DIGITS/digits/jobs/20160504-125826-1b43/mean.binaryproto"
  }
  data_param {
    source: "/home/kjaget/DIGITS/digits/jobs/20160504-125826-1b43/train_db"
    batch_size: 256
    backend: LMDB
  }
}
layer {
  name: "mnist"
  type: "Data"
  top: "data"
  top: "label"
  include {
    phase: TEST
  }
  transform_param {
    mean_file: "/home/kjaget/DIGITS/digits/jobs/20160504-125826-1b43/mean.binaryproto"
  }
  data_param {
    source: "/home/kjaget/DIGITS/digits/jobs/20160504-125826-1b43/val_db"
    batch_size: 100
    backend: LMDB
  }
}
layer {
  name: "scale_c12"
  type: "Power"
  bottom: "data"
  top: "scale_c12"
  power_param {
    scale: 0.0125
  }
}
layer {
  name: "conv1_c12"
  type: "Convolution"
  bottom: "scale_c12"
  top: "conv1_c12"
  param {
    lr_mult: 1.0
    decay_mult: 1.0
  }
  param {
    lr_mult: 2.0
    decay_mult: 0.0
  }
  convolution_param {
    num_output: 16
    kernel_size: 3
    stride: 1
    weight_filler {
      type: "xavier"
    }
    bias_filler {
      type: "constant"
    }
  }
}
layer {
  name: "pool1_c12"
  type: "Pooling"
  bottom: "conv1_c12"
  top: "pool1_c12"
  pooling_param {
    pool: MAX
    kernel_size: 3
    stride: 2
  }
}
layer {
  name: "relu1_c12"
  type: "ReLU"
  bottom: "pool1_c12"
  top: "pool1_c12"
}
layer {
  name: "fc1_c12"
  type: "InnerProduct"
  bottom: "pool1_c12"
  top: "fc1_c12"
  param {
    lr_mult: 1.0
    decay_mult: 1.0
  }
  param {
    lr_mult: 2.0
    decay_mult: 0.0
  }
  inner_product_param {
    num_output: 128
    weight_filler {
      type: "xavier"
    }
    bias_filler {
      type: "constant"
    }
  }
}
layer {
  name: "relu2_c12"
  type: "ReLU"
  bottom: "fc1_c12"
  top: "fc1_c12"
}
layer {
  name: "drop1"
  type: "Dropout"
  bottom: "fc1_c12"
  top: "fc1_c12"
  dropout_param {
    dropout_ratio: 0.5
  }
}
layer {
  name: "fc2_c12"
  type: "InnerProduct"
  bottom: "fc1_c12"
  top: "fc2_c12"
  param {
    lr_mult: 1.0
    decay_mult: 1.0
  }
  param {
    lr_mult: 2.0
    decay_mult: 0.0
  }
  inner_product_param {
    num_output: 45
    weight_filler {
      type: "xavier"
    }
    bias_filler {
      type: "constant"
    }
  }
}
layer {
  name: "accuracy"
  type: "Accuracy"
  bottom: "fc2_c12"
  bottom: "label"
  top: "accuracy"
  include {
    phase: TEST
  }
}
layer {
  name: "loss"
  type: "SoftmaxWithLoss"
  bottom: "fc2_c12"
  bottom: "label"
  top: "loss"
}
