…
I0722 12:32:14.070014 13247 net.cpp:316] The NetState phase (0) differed from the phase (1) specified by a rule in layer val-data
I0722 12:32:14.070024 13247 net.cpp:316] The NetState phase (0) differed from the phase (1) specified by a rule in layer accuracy
I0722 12:32:14.070086 13247 net.cpp:52] Initializing net from parameters:
state {
phase: TRAIN
}
layer {
name: "train-data"
type: "Data"
top: "data"
top: "label"
include {
phase: TRAIN
}
transform_param {
scale: 0.00390625
mirror: true
mean_value: 127
}
data_param {
source: "/home/kjaget/DIGITS/digits/jobs/20160720-213414-a9cd/train_db"
batch_size: 128
backend: LMDB
}
}
layer {
name: "conv1_d24"
type: "Convolution"
bottom: "data"
top: "conv1_d24"
param {
lr_mult: 1
decay_mult: 1
}
param {
lr_mult: 2
decay_mult: 0
}
convolution_param {
num_output: 4
kernel_size: 3
stride: 1
weight_filler {
type: "xavier"
}
bias_filler {
type: "constant"
}
}
}
layer {
name: "conv1a_d24"
type: "Convolution"
bottom: "conv1_d24"
top: "conv1a_d24"
param {
lr_mult: 1
decay_mult: 1
}
param {
lr_mult: 2
decay_mult: 0
}
convolution_param {
num_output: 4
kernel_size: 3
stride: 1
weight_filler {
type: "xavier"
}
bias_filler {
type: "constant"
}
}
}
layer {
name: "pool1a_d24"
type: "Pooling"
bottom: "conv1a_d24"
top: "pool1a_d24"
pooling_param {
pool: MAX
kernel_size: 3
stride: 2
}
}
layer {
name: "relu1a_d24"
type: "ReLU"
bottom: "pool1a_d24"
top: "pool1a_d24"
}
layer {
name: "fc1_d24"
type: "InnerProduct"
bottom: "pool1a_d24"
top: "fc1_d24"
param {
lr_mult: 1
decay_mult: 1
}
param {
lr_mult: 2
decay_mult: 0
}
inner_product_param {
num_output: 5
weight_filler {
type: "xavier"
}
bias_filler {
type: "constant"
}
}
}
layer {
name: "relu2_d24"
type: "ReLU"
bottom: "fc1_d24"
top: "fc1_d24"
}
layer {
name: "drop1_d24"
type: "Dropout"
bottom: "fc1_d24"
top: "fc1_d24"
dropout_param {
dropout_ratio: 0.5
}
}
layer {
name: "fc2_d24"
type: "InnerProduct"
bottom: "fc1_d24"
top: "fc2_d24"
param {
lr_mult: 1
decay_mult: 1
}
param {
lr_mult: 2
decay_mult: 0
}
inner_product_param {
num_output: 2
weight_filler {
type: "xavier"
}
bias_filler {
type: "constant"
}
}
}
layer {
name: "loss"
type: "SoftmaxWithLoss"
bottom: "fc2_d24"
bottom: "label"
top: "loss"
}
I0722 12:32:14.070132 13247 layer_factory.hpp:77] Creating layer train-data
I0722 12:32:14.070557 13247 net.cpp:94] Creating Layer train-data
I0722 12:32:14.070565 13247 net.cpp:402] train-data -> data
I0722 12:32:14.070596 13247 net.cpp:402] train-data -> label
I0722 12:32:14.071400 13260 db_lmdb.cpp:35] Opened lmdb /home/kjaget/DIGITS/digits/jobs/20160720-213414-a9cd/train_db
I0722 12:32:14.072146 13247 data_layer.cpp:41] output data size: 128,3,24,24
I0722 12:32:14.073797 13247 net.cpp:144] Setting up train-data
I0722 12:32:14.073810 13247 net.cpp:151] Top shape: 128 3 24 24 (221184)
I0722 12:32:14.073827 13247 net.cpp:151] Top shape: 128 (128)
I0722 12:32:14.073829 13247 net.cpp:159] Memory required for data: 885248
I0722 12:32:14.073835 13247 layer_factory.hpp:77] Creating layer conv1_d24
I0722 12:32:14.073848 13247 net.cpp:94] Creating Layer conv1_d24
I0722 12:32:14.073851 13247 net.cpp:428] conv1_d24 <- data
I0722 12:32:14.073860 13247 net.cpp:402] conv1_d24 -> conv1_d24
I0722 12:32:14.074336 13247 net.cpp:144] Setting up conv1_d24
I0722 12:32:14.074342 13247 net.cpp:151] Top shape: 128 4 22 22 (247808)
I0722 12:32:14.074345 13247 net.cpp:159] Memory required for data: 1876480
I0722 12:32:14.074355 13247 layer_factory.hpp:77] Creating layer conv1a_d24
I0722 12:32:14.074362 13247 net.cpp:94] Creating Layer conv1a_d24
I0722 12:32:14.074365 13247 net.cpp:428] conv1a_d24 <- conv1_d24
I0722 12:32:14.074368 13247 net.cpp:402] conv1a_d24 -> conv1a_d24
I0722 12:32:14.074496 13247 net.cpp:144] Setting up conv1a_d24
I0722 12:32:14.074499 13247 net.cpp:151] Top shape: 128 4 20 20 (204800)
I0722 12:32:14.074501 13247 net.cpp:159] Memory required for data: 2695680
I0722 12:32:14.074506 13247 layer_factory.hpp:77] Creating layer pool1a_d24
I0722 12:32:14.074513 13247 net.cpp:94] Creating Layer pool1a_d24
I0722 12:32:14.074515 13247 net.cpp:428] pool1a_d24 <- conv1a_d24
I0722 12:32:14.074518 13247 net.cpp:402] pool1a_d24 -> pool1a_d24
I0722 12:32:14.074545 13247 net.cpp:144] Setting up pool1a_d24
I0722 12:32:14.074550 13247 net.cpp:151] Top shape: 128 4 10 10 (51200)
I0722 12:32:14.074553 13247 net.cpp:159] Memory required for data: 2900480
I0722 12:32:14.074555 13247 layer_factory.hpp:77] Creating layer relu1a_d24
I0722 12:32:14.074559 13247 net.cpp:94] Creating Layer relu1a_d24
I0722 12:32:14.074561 13247 net.cpp:428] relu1a_d24 <- pool1a_d24
I0722 12:32:14.074564 13247 net.cpp:389] relu1a_d24 -> pool1a_d24 (in-place)
I0722 12:32:14.074573 13247 net.cpp:144] Setting up relu1a_d24
I0722 12:32:14.074575 13247 net.cpp:151] Top shape: 128 4 10 10 (51200)
I0722 12:32:14.074578 13247 net.cpp:159] Memory required for data: 3105280
I0722 12:32:14.074579 13247 layer_factory.hpp:77] Creating layer fc1_d24
I0722 12:32:14.074584 13247 net.cpp:94] Creating Layer fc1_d24
I0722 12:32:14.074586 13247 net.cpp:428] fc1_d24 <- pool1a_d24
I0722 12:32:14.074589 13247 net.cpp:402] fc1_d24 -> fc1_d24
I0722 12:32:14.075014 13247 net.cpp:144] Setting up fc1_d24
I0722 12:32:14.075021 13247 net.cpp:151] Top shape: 128 5 (640)
I0722 12:32:14.075023 13247 net.cpp:159] Memory required for data: 3107840
I0722 12:32:14.075031 13247 layer_factory.hpp:77] Creating layer relu2_d24
I0722 12:32:14.075033 13247 net.cpp:94] Creating Layer relu2_d24
I0722 12:32:14.075036 13247 net.cpp:428] relu2_d24 <- fc1_d24
I0722 12:32:14.075039 13247 net.cpp:389] relu2_d24 -> fc1_d24 (in-place)
I0722 12:32:14.075043 13247 net.cpp:144] Setting up relu2_d24
I0722 12:32:14.075047 13247 net.cpp:151] Top shape: 128 5 (640)
I0722 12:32:14.075048 13247 net.cpp:159] Memory required for data: 3110400
I0722 12:32:14.075050 13247 layer_factory.hpp:77] Creating layer drop1_d24
I0722 12:32:14.075055 13247 net.cpp:94] Creating Layer drop1_d24
I0722 12:32:14.075057 13247 net.cpp:428] drop1_d24 <- fc1_d24
I0722 12:32:14.075059 13247 net.cpp:389] drop1_d24 -> fc1_d24 (in-place)
I0722 12:32:14.075074 13247 net.cpp:144] Setting up drop1_d24
I0722 12:32:14.075078 13247 net.cpp:151] Top shape: 128 5 (640)
I0722 12:32:14.075079 13247 net.cpp:159] Memory required for data: 3112960
I0722 12:32:14.075081 13247 layer_factory.hpp:77] Creating layer fc2_d24
I0722 12:32:14.075086 13247 net.cpp:94] Creating Layer fc2_d24
I0722 12:32:14.075088 13247 net.cpp:428] fc2_d24 <- fc1_d24
I0722 12:32:14.075091 13247 net.cpp:402] fc2_d24 -> fc2_d24
I0722 12:32:14.075233 13247 net.cpp:144] Setting up fc2_d24
I0722 12:32:14.075237 13247 net.cpp:151] Top shape: 128 2 (256)
I0722 12:32:14.075239 13247 net.cpp:159] Memory required for data: 3113984
I0722 12:32:14.075243 13247 layer_factory.hpp:77] Creating layer loss
I0722 12:32:14.075248 13247 net.cpp:94] Creating Layer loss
I0722 12:32:14.075250 13247 net.cpp:428] loss <- fc2_d24
I0722 12:32:14.075260 13247 net.cpp:428] loss <- label
I0722 12:32:14.075264 13247 net.cpp:402] loss -> loss
I0722 12:32:14.075271 13247 layer_factory.hpp:77] Creating layer loss
…
I0722 12:32:14.075742 13247 solver.cpp:181] Creating test net (#0) specified by net file: train_val.prototxt
I0722 12:32:14.075768 13247 net.cpp:316] The NetState phase (1) differed from the phase (0) specified by a rule in layer train-data
I0722 12:32:14.075831 13247 net.cpp:52] Initializing net from parameters:
state {
phase: TEST
}
layer {
name: "val-data"
type: "Data"
top: "data"
top: "label"
include {
phase: TEST
}
transform_param {
scale: 0.00390625
mirror: true
mean_value: 127
}
data_param {
source: "/home/kjaget/DIGITS/digits/jobs/20160720-213414-a9cd/val_db"
batch_size: 128
backend: LMDB
}
}
layer {
name: "conv1_d24"
type: "Convolution"
bottom: "data"
top: "conv1_d24"
param {
lr_mult: 1
decay_mult: 1
}
param {
lr_mult: 2
decay_mult: 0
}
convolution_param {
num_output: 4
kernel_size: 3
stride: 1
weight_filler {
type: "xavier"
}
bias_filler {
type: "constant"
}
}
}
layer {
name: "conv1a_d24"
type: "Convolution"
bottom: "conv1_d24"
top: "conv1a_d24"
param {
lr_mult: 1
decay_mult: 1
}
param {
lr_mult: 2
decay_mult: 0
}
convolution_param {
num_output: 4
kernel_size: 3
stride: 1
weight_filler {
type: "xavier"
}
bias_filler {
type: "constant"
}
}
}
layer {
name: "pool1a_d24"
type: "Pooling"
bottom: "conv1a_d24"
top: "pool1a_d24"
pooling_param {
pool: MAX
kernel_size: 3
stride: 2
}
}
layer {
name: "relu1a_d24"
type: "ReLU"
bottom: "pool1a_d24"
top: "pool1a_d24"
}
layer {
name: "fc1_d24"
type: "InnerProduct"
bottom: "pool1a_d24"
top: "fc1_d24"
param {
lr_mult: 1
decay_mult: 1
}
param {
lr_mult: 2
decay_mult: 0
}
inner_product_param {
num_output: 5
weight_filler {
type: "xavier"
}
bias_filler {
type: "constant"
}
}
}
layer {
name: "relu2_d24"
type: "ReLU"
bottom: "fc1_d24"
top: "fc1_d24"
}
layer {
name: "drop1_d24"
type: "Dropout"
bottom: "fc1_d24"
top: "fc1_d24"
dropout_param {
dropout_ratio: 0.5
}
}
layer {
name: "fc2_d24"
type: "InnerProduct"
bottom: "fc1_d24"
top: "fc2_d24"
param {
lr_mult: 1
decay_mult: 1
}
param {
lr_mult: 2
decay_mult: 0
}
inner_product_param {
num_output: 2
weight_filler {
type: "xavier"
}
bias_filler {
type: "constant"
}
}
}
layer {
name: "accuracy"
type: "Accuracy"
bottom: "fc2_d24"
bottom: "label"
top: "accuracy"
include {
phase: TEST
}
}
layer {
name: "loss"
type: "SoftmaxWithLoss"
bottom: "fc2_d24"
bottom: "label"
top: "loss"
}
I0722 12:32:14.075884 13247 layer_factory.hpp:77] Creating layer val-data
I0722 12:32:14.075969 13247 net.cpp:94] Creating Layer val-data
I0722 12:32:14.075974 13247 net.cpp:402] val-data -> data
I0722 12:32:14.075979 13247 net.cpp:402] val-data -> label
I0722 12:32:14.076704 13262 db_lmdb.cpp:35] Opened lmdb /home/kjaget/DIGITS/digits/jobs/20160720-213414-a9cd/val_db
I0722 12:32:14.076812 13247 data_layer.cpp:41] output data size: 128,3,24,24
I0722 12:32:14.078450 13247 net.cpp:144] Setting up val-data
I0722 12:32:14.078461 13247 net.cpp:151] Top shape: 128 3 24 24 (221184)
I0722 12:32:14.078464 13247 net.cpp:151] Top shape: 128 (128)
I0722 12:32:14.078466 13247 net.cpp:159] Memory required for data: 885248
I0722 12:32:14.078469 13247 layer_factory.hpp:77] Creating layer label_val-data_1_split
I0722 12:32:14.078476 13247 net.cpp:94] Creating Layer label_val-data_1_split
I0722 12:32:14.078479 13247 net.cpp:428] label_val-data_1_split <- label
I0722 12:32:14.078482 13247 net.cpp:402] label_val-data_1_split -> label_val-data_1_split_0
I0722 12:32:14.078487 13247 net.cpp:402] label_val-data_1_split -> label_val-data_1_split_1
I0722 12:32:14.078521 13247 net.cpp:144] Setting up label_val-data_1_split
I0722 12:32:14.078526 13247 net.cpp:151] Top shape: 128 (128)
I0722 12:32:14.078527 13247 net.cpp:151] Top shape: 128 (128)
I0722 12:32:14.078531 13247 net.cpp:159] Memory required for data: 886272
I0722 12:32:14.078532 13247 layer_factory.hpp:77] Creating layer conv1_d24
I0722 12:32:14.078538 13247 net.cpp:94] Creating Layer conv1_d24
I0722 12:32:14.078541 13247 net.cpp:428] conv1_d24 <- data
I0722 12:32:14.078544 13247 net.cpp:402] conv1_d24 -> conv1_d24
I0722 12:32:14.078685 13247 net.cpp:144] Setting up conv1_d24
I0722 12:32:14.078691 13247 net.cpp:151] Top shape: 128 4 22 22 (247808)
I0722 12:32:14.078693 13247 net.cpp:159] Memory required for data: 1877504
I0722 12:32:14.078699 13247 layer_factory.hpp:77] Creating layer conv1a_d24
I0722 12:32:14.078704 13247 net.cpp:94] Creating Layer conv1a_d24
I0722 12:32:14.078706 13247 net.cpp:428] conv1a_d24 <- conv1_d24
I0722 12:32:14.078711 13247 net.cpp:402] conv1a_d24 -> conv1a_d24
I0722 12:32:14.078845 13247 net.cpp:144] Setting up conv1a_d24
I0722 12:32:14.078850 13247 net.cpp:151] Top shape: 128 4 20 20 (204800)
I0722 12:32:14.078851 13247 net.cpp:159] Memory required for data: 2696704
I0722 12:32:14.078856 13247 layer_factory.hpp:77] Creating layer pool1a_d24
I0722 12:32:14.078861 13247 net.cpp:94] Creating Layer pool1a_d24
I0722 12:32:14.078863 13247 net.cpp:428] pool1a_d24 <- conv1a_d24
I0722 12:32:14.078867 13247 net.cpp:402] pool1a_d24 -> pool1a_d24
I0722 12:32:14.078888 13247 net.cpp:144] Setting up pool1a_d24
I0722 12:32:14.078891 13247 net.cpp:151] Top shape: 128 4 10 10 (51200)
I0722 12:32:14.078893 13247 net.cpp:159] Memory required for data: 2901504
I0722 12:32:14.078896 13247 layer_factory.hpp:77] Creating layer relu1a_d24
I0722 12:32:14.078898 13247 net.cpp:94] Creating Layer relu1a_d24
I0722 12:32:14.078902 13247 net.cpp:428] relu1a_d24 <- pool1a_d24
I0722 12:32:14.078904 13247 net.cpp:389] relu1a_d24 -> pool1a_d24 (in-place)
I0722 12:32:14.078908 13247 net.cpp:144] Setting up relu1a_d24
I0722 12:32:14.078912 13247 net.cpp:151] Top shape: 128 4 10 10 (51200)
I0722 12:32:14.078913 13247 net.cpp:159] Memory required for data: 3106304
I0722 12:32:14.078915 13247 layer_factory.hpp:77] Creating layer fc1_d24
I0722 12:32:14.078918 13247 net.cpp:94] Creating Layer fc1_d24
I0722 12:32:14.078920 13247 net.cpp:428] fc1_d24 <- pool1a_d24
I0722 12:32:14.078923 13247 net.cpp:402] fc1_d24 -> fc1_d24
I0722 12:32:14.078996 13247 net.cpp:144] Setting up fc1_d24
I0722 12:32:14.078999 13247 net.cpp:151] Top shape: 128 5 (640)
I0722 12:32:14.079002 13247 net.cpp:159] Memory required for data: 3108864
I0722 12:32:14.079007 13247 layer_factory.hpp:77] Creating layer relu2_d24
I0722 12:32:14.079010 13247 net.cpp:94] Creating Layer relu2_d24
I0722 12:32:14.079012 13247 net.cpp:428] relu2_d24 <- fc1_d24
I0722 12:32:14.079015 13247 net.cpp:389] relu2_d24 -> fc1_d24 (in-place)
I0722 12:32:14.079030 13247 net.cpp:144] Setting up relu2_d24
I0722 12:32:14.079033 13247 net.cpp:151] Top shape: 128 5 (640)
I0722 12:32:14.079035 13247 net.cpp:159] Memory required for data: 3111424
I0722 12:32:14.079037 13247 layer_factory.hpp:77] Creating layer drop1_d24
I0722 12:32:14.079041 13247 net.cpp:94] Creating Layer drop1_d24
I0722 12:32:14.079043 13247 net.cpp:428] drop1_d24 <- fc1_d24
I0722 12:32:14.079046 13247 net.cpp:389] drop1_d24 -> fc1_d24 (in-place)
I0722 12:32:14.079231 13247 net.cpp:144] Setting up drop1_d24
I0722 12:32:14.079234 13247 net.cpp:151] Top shape: 128 5 (640)
I0722 12:32:14.079236 13247 net.cpp:159] Memory required for data: 3113984
I0722 12:32:14.079238 13247 layer_factory.hpp:77] Creating layer fc2_d24
I0722 12:32:14.079241 13247 net.cpp:94] Creating Layer fc2_d24
I0722 12:32:14.079243 13247 net.cpp:428] fc2_d24 <- fc1_d24
I0722 12:32:14.079247 13247 net.cpp:402] fc2_d24 -> fc2_d24
I0722 12:32:14.079334 13247 net.cpp:144] Setting up fc2_d24
I0722 12:32:14.079339 13247 net.cpp:151] Top shape: 128 2 (256)
I0722 12:32:14.079341 13247 net.cpp:159] Memory required for data: 3115008
I0722 12:32:14.079344 13247 layer_factory.hpp:77] Creating layer fc2_d24_fc2_d24_0_split
I0722 12:32:14.079349 13247 net.cpp:94] Creating Layer fc2_d24_fc2_d24_0_split
I0722 12:32:14.079350 13247 net.cpp:428] fc2_d24_fc2_d24_0_split <- fc2_d24
I0722 12:32:14.079354 13247 net.cpp:402] fc2_d24_fc2_d24_0_split -> fc2_d24_fc2_d24_0_split_0
I0722 12:32:14.079357 13247 net.cpp:402] fc2_d24_fc2_d24_0_split -> fc2_d24_fc2_d24_0_split_1
I0722 12:32:14.079385 13247 net.cpp:144] Setting up fc2_d24_fc2_d24_0_split
I0722 12:32:14.079387 13247 net.cpp:151] Top shape: 128 2 (256)
I0722 12:32:14.079393 13247 net.cpp:151] Top shape: 128 2 (256)
I0722 12:32:14.079396 13247 net.cpp:159] Memory required for data: 3117056
I0722 12:32:14.079397 13247 layer_factory.hpp:77] Creating layer accuracy
I0722 12:32:14.079406 13247 net.cpp:94] Creating Layer accuracy
I0722 12:32:14.079407 13247 net.cpp:428] accuracy <- fc2_d24_fc2_d24_0_split_0
I0722 12:32:14.079411 13247 net.cpp:428] accuracy <- label_val-data_1_split_0
I0722 12:32:14.079413 13247 net.cpp:402] accuracy -> accuracy
…
