…
I0716 09:41:34.875891  1305 net.cpp:316] The NetState phase (0) differed from the phase (1) specified by a rule in layer val-data
I0716 09:41:34.875901  1305 net.cpp:316] The NetState phase (0) differed from the phase (1) specified by a rule in layer accuracy
I0716 09:41:34.875973  1305 net.cpp:52] Initializing net from parameters:
state {
phase: TRAIN
}
layer {
name: "train-data"
type: "Data"
top: "data"
top: "label"
include {
phase: TRAIN
}
transform_param {
scale: 0.00390625
mirror: true
mean_value: 127
}
data_param {
source: "/home/kjaget/DIGITS/digits/jobs/20160712-072513-c2c3/train_db"
batch_size: 128
backend: LMDB
}
}
layer {
name: "conv1_d24"
type: "Convolution"
bottom: "data"
top: "conv1_d24"
param {
lr_mult: 1
decay_mult: 1
}
param {
lr_mult: 2
decay_mult: 0
}
convolution_param {
num_output: 6
kernel_size: 3
stride: 1
weight_filler {
type: "xavier"
}
bias_filler {
type: "constant"
}
}
}
layer {
name: "conv1a_d24"
type: "Convolution"
bottom: "conv1_d24"
top: "conv1a_d24"
param {
lr_mult: 1
decay_mult: 1
}
param {
lr_mult: 2
decay_mult: 0
}
convolution_param {
num_output: 6
kernel_size: 3
stride: 1
weight_filler {
type: "xavier"
}
bias_filler {
type: "constant"
}
}
}
layer {
name: "pool1a_d24"
type: "Pooling"
bottom: "conv1a_d24"
top: "pool1a_d24"
pooling_param {
pool: MAX
kernel_size: 3
stride: 2
}
}
layer {
name: "relu1a_d24"
type: "ReLU"
bottom: "pool1a_d24"
top: "pool1a_d24"
}
layer {
name: "fc1_d24"
type: "InnerProduct"
bottom: "pool1a_d24"
top: "fc1_d24"
param {
lr_mult: 1
decay_mult: 1
}
param {
lr_mult: 2
decay_mult: 0
}
inner_product_param {
num_output: 16
weight_filler {
type: "xavier"
}
bias_filler {
type: "constant"
}
}
}
layer {
name: "relu2_d24"
type: "ReLU"
bottom: "fc1_d24"
top: "fc1_d24"
}
layer {
name: "drop1_d24"
type: "Dropout"
bottom: "fc1_d24"
top: "fc1_d24"
dropout_param {
dropout_ratio: 0.5
}
}
layer {
name: "fc2_d24"
type: "InnerProduct"
bottom: "fc1_d24"
top: "fc2_d24"
param {
lr_mult: 1
decay_mult: 1
}
param {
lr_mult: 2
decay_mult: 0
}
inner_product_param {
num_output: 2
weight_filler {
type: "xavier"
}
bias_filler {
type: "constant"
}
}
}
layer {
name: "loss"
type: "SoftmaxWithLoss"
bottom: "fc2_d24"
bottom: "label"
top: "loss"
}
I0716 09:41:34.876020  1305 layer_factory.hpp:77] Creating layer train-data
I0716 09:41:34.876500  1305 net.cpp:94] Creating Layer train-data
I0716 09:41:34.876525  1305 net.cpp:402] train-data -> data
I0716 09:41:34.876545  1305 net.cpp:402] train-data -> label
I0716 09:41:34.877449  1319 db_lmdb.cpp:35] Opened lmdb /home/kjaget/DIGITS/digits/jobs/20160712-072513-c2c3/train_db
I0716 09:41:34.878010  1305 data_layer.cpp:41] output data size: 128,3,24,24
I0716 09:41:34.879606  1305 net.cpp:144] Setting up train-data
I0716 09:41:34.879619  1305 net.cpp:151] Top shape: 128 3 24 24 (221184)
I0716 09:41:34.879636  1305 net.cpp:151] Top shape: 128 (128)
I0716 09:41:34.879638  1305 net.cpp:159] Memory required for data: 885248
I0716 09:41:34.879644  1305 layer_factory.hpp:77] Creating layer conv1_d24
I0716 09:41:34.879658  1305 net.cpp:94] Creating Layer conv1_d24
I0716 09:41:34.879662  1305 net.cpp:428] conv1_d24 <- data
I0716 09:41:34.879672  1305 net.cpp:402] conv1_d24 -> conv1_d24
I0716 09:41:34.880110  1305 net.cpp:144] Setting up conv1_d24
I0716 09:41:34.880117  1305 net.cpp:151] Top shape: 128 6 22 22 (371712)
I0716 09:41:34.880120  1305 net.cpp:159] Memory required for data: 2372096
I0716 09:41:34.880131  1305 layer_factory.hpp:77] Creating layer conv1a_d24
I0716 09:41:34.880137  1305 net.cpp:94] Creating Layer conv1a_d24
I0716 09:41:34.880139  1305 net.cpp:428] conv1a_d24 <- conv1_d24
I0716 09:41:34.880143  1305 net.cpp:402] conv1a_d24 -> conv1a_d24
I0716 09:41:34.880444  1305 net.cpp:144] Setting up conv1a_d24
I0716 09:41:34.880448  1305 net.cpp:151] Top shape: 128 6 20 20 (307200)
I0716 09:41:34.880451  1305 net.cpp:159] Memory required for data: 3600896
I0716 09:41:34.880456  1305 layer_factory.hpp:77] Creating layer pool1a_d24
I0716 09:41:34.880463  1305 net.cpp:94] Creating Layer pool1a_d24
I0716 09:41:34.880465  1305 net.cpp:428] pool1a_d24 <- conv1a_d24
I0716 09:41:34.880468  1305 net.cpp:402] pool1a_d24 -> pool1a_d24
I0716 09:41:34.880576  1305 net.cpp:144] Setting up pool1a_d24
I0716 09:41:34.880581  1305 net.cpp:151] Top shape: 128 6 10 10 (76800)
I0716 09:41:34.880584  1305 net.cpp:159] Memory required for data: 3908096
I0716 09:41:34.880585  1305 layer_factory.hpp:77] Creating layer relu1a_d24
I0716 09:41:34.880590  1305 net.cpp:94] Creating Layer relu1a_d24
I0716 09:41:34.880592  1305 net.cpp:428] relu1a_d24 <- pool1a_d24
I0716 09:41:34.880595  1305 net.cpp:389] relu1a_d24 -> pool1a_d24 (in-place)
I0716 09:41:34.880604  1305 net.cpp:144] Setting up relu1a_d24
I0716 09:41:34.880607  1305 net.cpp:151] Top shape: 128 6 10 10 (76800)
I0716 09:41:34.880609  1305 net.cpp:159] Memory required for data: 4215296
I0716 09:41:34.880611  1305 layer_factory.hpp:77] Creating layer fc1_d24
I0716 09:41:34.880616  1305 net.cpp:94] Creating Layer fc1_d24
I0716 09:41:34.880619  1305 net.cpp:428] fc1_d24 <- pool1a_d24
I0716 09:41:34.880621  1305 net.cpp:402] fc1_d24 -> fc1_d24
I0716 09:41:34.881105  1305 net.cpp:144] Setting up fc1_d24
I0716 09:41:34.881124  1305 net.cpp:151] Top shape: 128 16 (2048)
I0716 09:41:34.881125  1305 net.cpp:159] Memory required for data: 4223488
I0716 09:41:34.881131  1305 layer_factory.hpp:77] Creating layer relu2_d24
I0716 09:41:34.881136  1305 net.cpp:94] Creating Layer relu2_d24
I0716 09:41:34.881139  1305 net.cpp:428] relu2_d24 <- fc1_d24
I0716 09:41:34.881141  1305 net.cpp:389] relu2_d24 -> fc1_d24 (in-place)
I0716 09:41:34.881146  1305 net.cpp:144] Setting up relu2_d24
I0716 09:41:34.881150  1305 net.cpp:151] Top shape: 128 16 (2048)
I0716 09:41:34.881151  1305 net.cpp:159] Memory required for data: 4231680
I0716 09:41:34.881162  1305 layer_factory.hpp:77] Creating layer drop1_d24
I0716 09:41:34.881167  1305 net.cpp:94] Creating Layer drop1_d24
I0716 09:41:34.881170  1305 net.cpp:428] drop1_d24 <- fc1_d24
I0716 09:41:34.881172  1305 net.cpp:389] drop1_d24 -> fc1_d24 (in-place)
I0716 09:41:34.881186  1305 net.cpp:144] Setting up drop1_d24
I0716 09:41:34.881198  1305 net.cpp:151] Top shape: 128 16 (2048)
I0716 09:41:34.881201  1305 net.cpp:159] Memory required for data: 4239872
I0716 09:41:34.881203  1305 layer_factory.hpp:77] Creating layer fc2_d24
I0716 09:41:34.881208  1305 net.cpp:94] Creating Layer fc2_d24
I0716 09:41:34.881211  1305 net.cpp:428] fc2_d24 <- fc1_d24
I0716 09:41:34.881213  1305 net.cpp:402] fc2_d24 -> fc2_d24
I0716 09:41:34.881307  1305 net.cpp:144] Setting up fc2_d24
I0716 09:41:34.881314  1305 net.cpp:151] Top shape: 128 2 (256)
I0716 09:41:34.881317  1305 net.cpp:159] Memory required for data: 4240896
I0716 09:41:34.881323  1305 layer_factory.hpp:77] Creating layer loss
I0716 09:41:34.881340  1305 net.cpp:94] Creating Layer loss
I0716 09:41:34.881343  1305 net.cpp:428] loss <- fc2_d24
I0716 09:41:34.881381  1305 net.cpp:428] loss <- label
I0716 09:41:34.881394  1305 net.cpp:402] loss -> loss
I0716 09:41:34.881403  1305 layer_factory.hpp:77] Creating layer loss
…
I0716 09:41:34.881783  1305 solver.cpp:181] Creating test net (#0) specified by net file: train_val.prototxt
I0716 09:41:34.881800  1305 net.cpp:316] The NetState phase (1) differed from the phase (0) specified by a rule in layer train-data
I0716 09:41:34.881866  1305 net.cpp:52] Initializing net from parameters:
state {
phase: TEST
}
layer {
name: "val-data"
type: "Data"
top: "data"
top: "label"
include {
phase: TEST
}
transform_param {
scale: 0.00390625
mirror: true
mean_value: 127
}
data_param {
source: "/home/kjaget/DIGITS/digits/jobs/20160712-072513-c2c3/val_db"
batch_size: 128
backend: LMDB
}
}
layer {
name: "conv1_d24"
type: "Convolution"
bottom: "data"
top: "conv1_d24"
param {
lr_mult: 1
decay_mult: 1
}
param {
lr_mult: 2
decay_mult: 0
}
convolution_param {
num_output: 6
kernel_size: 3
stride: 1
weight_filler {
type: "xavier"
}
bias_filler {
type: "constant"
}
}
}
layer {
name: "conv1a_d24"
type: "Convolution"
bottom: "conv1_d24"
top: "conv1a_d24"
param {
lr_mult: 1
decay_mult: 1
}
param {
lr_mult: 2
decay_mult: 0
}
convolution_param {
num_output: 6
kernel_size: 3
stride: 1
weight_filler {
type: "xavier"
}
bias_filler {
type: "constant"
}
}
}
layer {
name: "pool1a_d24"
type: "Pooling"
bottom: "conv1a_d24"
top: "pool1a_d24"
pooling_param {
pool: MAX
kernel_size: 3
stride: 2
}
}
layer {
name: "relu1a_d24"
type: "ReLU"
bottom: "pool1a_d24"
top: "pool1a_d24"
}
layer {
name: "fc1_d24"
type: "InnerProduct"
bottom: "pool1a_d24"
top: "fc1_d24"
param {
lr_mult: 1
decay_mult: 1
}
param {
lr_mult: 2
decay_mult: 0
}
inner_product_param {
num_output: 16
weight_filler {
type: "xavier"
}
bias_filler {
type: "constant"
}
}
}
layer {
name: "relu2_d24"
type: "ReLU"
bottom: "fc1_d24"
top: "fc1_d24"
}
layer {
name: "drop1_d24"
type: "Dropout"
bottom: "fc1_d24"
top: "fc1_d24"
dropout_param {
dropout_ratio: 0.5
}
}
layer {
name: "fc2_d24"
type: "InnerProduct"
bottom: "fc1_d24"
top: "fc2_d24"
param {
lr_mult: 1
decay_mult: 1
}
param {
lr_mult: 2
decay_mult: 0
}
inner_product_param {
num_output: 2
weight_filler {
type: "xavier"
}
bias_filler {
type: "constant"
}
}
}
layer {
name: "accuracy"
type: "Accuracy"
bottom: "fc2_d24"
bottom: "label"
top: "accuracy"
include {
phase: TEST
}
}
layer {
name: "loss"
type: "SoftmaxWithLoss"
bottom: "fc2_d24"
bottom: "label"
top: "loss"
}
I0716 09:41:34.881920  1305 layer_factory.hpp:77] Creating layer val-data
I0716 09:41:34.881996  1305 net.cpp:94] Creating Layer val-data
I0716 09:41:34.882001  1305 net.cpp:402] val-data -> data
I0716 09:41:34.882007  1305 net.cpp:402] val-data -> label
I0716 09:41:34.882799  1321 db_lmdb.cpp:35] Opened lmdb /home/kjaget/DIGITS/digits/jobs/20160712-072513-c2c3/val_db
I0716 09:41:34.882905  1305 data_layer.cpp:41] output data size: 128,3,24,24
I0716 09:41:34.884474  1305 net.cpp:144] Setting up val-data
I0716 09:41:34.884484  1305 net.cpp:151] Top shape: 128 3 24 24 (221184)
I0716 09:41:34.884487  1305 net.cpp:151] Top shape: 128 (128)
I0716 09:41:34.884490  1305 net.cpp:159] Memory required for data: 885248
I0716 09:41:34.884492  1305 layer_factory.hpp:77] Creating layer label_val-data_1_split
I0716 09:41:34.884500  1305 net.cpp:94] Creating Layer label_val-data_1_split
I0716 09:41:34.884503  1305 net.cpp:428] label_val-data_1_split <- label
I0716 09:41:34.884507  1305 net.cpp:402] label_val-data_1_split -> label_val-data_1_split_0
I0716 09:41:34.884512  1305 net.cpp:402] label_val-data_1_split -> label_val-data_1_split_1
I0716 09:41:34.884548  1305 net.cpp:144] Setting up label_val-data_1_split
I0716 09:41:34.884562  1305 net.cpp:151] Top shape: 128 (128)
I0716 09:41:34.884564  1305 net.cpp:151] Top shape: 128 (128)
I0716 09:41:34.884567  1305 net.cpp:159] Memory required for data: 886272
I0716 09:41:34.884568  1305 layer_factory.hpp:77] Creating layer conv1_d24
I0716 09:41:34.884575  1305 net.cpp:94] Creating Layer conv1_d24
I0716 09:41:34.884577  1305 net.cpp:428] conv1_d24 <- data
I0716 09:41:34.884582  1305 net.cpp:402] conv1_d24 -> conv1_d24
I0716 09:41:34.884732  1305 net.cpp:144] Setting up conv1_d24
I0716 09:41:34.884737  1305 net.cpp:151] Top shape: 128 6 22 22 (371712)
I0716 09:41:34.884738  1305 net.cpp:159] Memory required for data: 2373120
I0716 09:41:34.884744  1305 layer_factory.hpp:77] Creating layer conv1a_d24
I0716 09:41:34.884750  1305 net.cpp:94] Creating Layer conv1a_d24
I0716 09:41:34.884752  1305 net.cpp:428] conv1a_d24 <- conv1_d24
I0716 09:41:34.884757  1305 net.cpp:402] conv1a_d24 -> conv1a_d24
I0716 09:41:34.884902  1305 net.cpp:144] Setting up conv1a_d24
I0716 09:41:34.884907  1305 net.cpp:151] Top shape: 128 6 20 20 (307200)
I0716 09:41:34.884908  1305 net.cpp:159] Memory required for data: 3601920
I0716 09:41:34.884914  1305 layer_factory.hpp:77] Creating layer pool1a_d24
I0716 09:41:34.884919  1305 net.cpp:94] Creating Layer pool1a_d24
I0716 09:41:34.884922  1305 net.cpp:428] pool1a_d24 <- conv1a_d24
I0716 09:41:34.884924  1305 net.cpp:402] pool1a_d24 -> pool1a_d24
I0716 09:41:34.884946  1305 net.cpp:144] Setting up pool1a_d24
I0716 09:41:34.884949  1305 net.cpp:151] Top shape: 128 6 10 10 (76800)
I0716 09:41:34.884951  1305 net.cpp:159] Memory required for data: 3909120
I0716 09:41:34.884953  1305 layer_factory.hpp:77] Creating layer relu1a_d24
I0716 09:41:34.884958  1305 net.cpp:94] Creating Layer relu1a_d24
I0716 09:41:34.884959  1305 net.cpp:428] relu1a_d24 <- pool1a_d24
I0716 09:41:34.884963  1305 net.cpp:389] relu1a_d24 -> pool1a_d24 (in-place)
I0716 09:41:34.884966  1305 net.cpp:144] Setting up relu1a_d24
I0716 09:41:34.884969  1305 net.cpp:151] Top shape: 128 6 10 10 (76800)
I0716 09:41:34.884971  1305 net.cpp:159] Memory required for data: 4216320
I0716 09:41:34.884974  1305 layer_factory.hpp:77] Creating layer fc1_d24
I0716 09:41:34.884977  1305 net.cpp:94] Creating Layer fc1_d24
I0716 09:41:34.884979  1305 net.cpp:428] fc1_d24 <- pool1a_d24
I0716 09:41:34.884982  1305 net.cpp:402] fc1_d24 -> fc1_d24
I0716 09:41:34.885092  1305 net.cpp:144] Setting up fc1_d24
I0716 09:41:34.885095  1305 net.cpp:151] Top shape: 128 16 (2048)
I0716 09:41:34.885097  1305 net.cpp:159] Memory required for data: 4224512
I0716 09:41:34.885102  1305 layer_factory.hpp:77] Creating layer relu2_d24
I0716 09:41:34.885107  1305 net.cpp:94] Creating Layer relu2_d24
I0716 09:41:34.885108  1305 net.cpp:428] relu2_d24 <- fc1_d24
I0716 09:41:34.885112  1305 net.cpp:389] relu2_d24 -> fc1_d24 (in-place)
I0716 09:41:34.885126  1305 net.cpp:144] Setting up relu2_d24
I0716 09:41:34.885129  1305 net.cpp:151] Top shape: 128 16 (2048)
I0716 09:41:34.885131  1305 net.cpp:159] Memory required for data: 4232704
I0716 09:41:34.885133  1305 layer_factory.hpp:77] Creating layer drop1_d24
I0716 09:41:34.885138  1305 net.cpp:94] Creating Layer drop1_d24
I0716 09:41:34.885140  1305 net.cpp:428] drop1_d24 <- fc1_d24
I0716 09:41:34.885143  1305 net.cpp:389] drop1_d24 -> fc1_d24 (in-place)
I0716 09:41:34.885279  1305 net.cpp:144] Setting up drop1_d24
I0716 09:41:34.885283  1305 net.cpp:151] Top shape: 128 16 (2048)
I0716 09:41:34.885285  1305 net.cpp:159] Memory required for data: 4240896
I0716 09:41:34.885288  1305 layer_factory.hpp:77] Creating layer fc2_d24
I0716 09:41:34.885291  1305 net.cpp:94] Creating Layer fc2_d24
I0716 09:41:34.885293  1305 net.cpp:428] fc2_d24 <- fc1_d24
I0716 09:41:34.885296  1305 net.cpp:402] fc2_d24 -> fc2_d24
I0716 09:41:34.885391  1305 net.cpp:144] Setting up fc2_d24
I0716 09:41:34.885397  1305 net.cpp:151] Top shape: 128 2 (256)
I0716 09:41:34.885399  1305 net.cpp:159] Memory required for data: 4241920
I0716 09:41:34.885403  1305 layer_factory.hpp:77] Creating layer fc2_d24_fc2_d24_0_split
I0716 09:41:34.885407  1305 net.cpp:94] Creating Layer fc2_d24_fc2_d24_0_split
I0716 09:41:34.885409  1305 net.cpp:428] fc2_d24_fc2_d24_0_split <- fc2_d24
I0716 09:41:34.885412  1305 net.cpp:402] fc2_d24_fc2_d24_0_split -> fc2_d24_fc2_d24_0_split_0
I0716 09:41:34.885416  1305 net.cpp:402] fc2_d24_fc2_d24_0_split -> fc2_d24_fc2_d24_0_split_1
I0716 09:41:34.885437  1305 net.cpp:144] Setting up fc2_d24_fc2_d24_0_split
I0716 09:41:34.885440  1305 net.cpp:151] Top shape: 128 2 (256)
I0716 09:41:34.885443  1305 net.cpp:151] Top shape: 128 2 (256)
I0716 09:41:34.885444  1305 net.cpp:159] Memory required for data: 4243968
I0716 09:41:34.885447  1305 layer_factory.hpp:77] Creating layer accuracy
I0716 09:41:34.885452  1305 net.cpp:94] Creating Layer accuracy
I0716 09:41:34.885454  1305 net.cpp:428] accuracy <- fc2_d24_fc2_d24_0_split_0
I0716 09:41:34.885457  1305 net.cpp:428] accuracy <- label_val-data_1_split_0
I0716 09:41:34.885462  1305 net.cpp:402] accuracy -> accuracy
…
